code/polxeur_model.pth (torch, 3326 bytes, 5 tensors)

lstm.weight_ih_l0 f4 [24, 5]
0	0x3f0ebc77	0.55756325
1	0x3e6ee01c	0.23327678
2	0x3f6793e8	0.9046006
3	0x3f752633	0.9576141
4	0x3f20e2ba	0.6284596
5	0xbe2cfff4	-0.16894513
6	0xbe930bdb	-0.28719983
7	0xbe28cb46	-0.16483793
8	0x3ed336f0	0.4125285
9	0x3e86f42f	0.26358172
10	0x3ea77b78	0.32711387
11	0x3e4a2dc3	0.19744019
12	0x3d4da45a	0.050205566
13	0xbc15196e	-0.009100301
14	0xbeb5d7fd	-0.35516348
15	0xbe552c32	-0.2081764
16	0xbe76057b	-0.24025528
17	0x3ec8bbd1	0.39205793
18	0xbd9328f8	-0.071855485
19	0x3d745ff1	0.05966181
20	0xbdd097ce	-0.101852044
21	0x3d707456	0.058704697
22	0xbe3f2ad2	-0.18668678
23	0xbe0f30ab	-0.13983409
24	0x3e676e91	0.22600771
25	0xbe3253ce	-0.17414781
26	0x3e4bfde2	0.19921067
27	0x3dc5d472	0.09659661
28	0xbe8ab3fe	-0.27090448
29	0xbecfe241	-0.40602306
30	0xbd739751	-0.05947048
31	0x3c5d9fc8	0.013526864
32	0xbe86f9d2	-0.26362473
33	0x3ea7b1cc	0.32752836
34	0xbebc7006	-0.36804217
35	0x3ea5695e	0.3230695
36	0x3e9b3449	0.30313328
37	0x3ed07ff6	0.40722626
38	0xbe467bbc	-0.19383138
39	0x3ea59fbd	0.32348433
40	0xbea59707	-0.32341787
41	0x3cac9ba0	0.021070302
42	0x3e5a8f50	0.21343732
43	0xbe42bedb	-0.19018118
44	0xbe307304	-0.17231375
45	0xbcde2682	-0.027117971
46	0xbe8c4ac6	-0.27400798
47	0x3e934454	0.28763068
48	0xbeb252ef	-0.34828898
49	0x3e879627	0.26481745
50	0x3ee33796	0.44378346
51	0x3f063f5c	0.5244043
52	0x3a2fa8ff	0.00067009026
53	0xbe4ead23	-0.20183234
54	0x3e377bc4	0.17918307
55	0xbcebed9d	-0.028799826
56	0xbf292119	-0.6606613
57	0xbd75aec3	-0.05998112
58	0xbe67fdf9	-0.22655477
59	0xbef9afcf	-0.48766944
60	0xbeccd31f	-0.40004823
61	0xbebb61eb	-0.36598143
62	0xbe72a74a	-0.23696628
63	0xbf12dfe6	-0.5737289
64	0x3ee68650	0.45024347
65	0x3e5466c5	0.20742328
66	0xbe4ba38b	-0.19886605
67	0xbe150701	-0.14553453
68	0xbe9956e5	-0.29949108
69	0xbec0ddd9	-0.37669256
70	0xbeb602eb	-0.355491
71	0x3e462a7e	0.19352147
72	0xbde2c4d8	-0.11072701
73	0xbe6753f7	-0.22590624
74	0x3daab713	0.083357
75	0xbe8a2384	-0.2698022
76	0xbe8827a5	-0.26592746
77	0xbd9d24b9	-0.0767302
78	0xbe5dee48	-0.21672928
79	0xbe0ecc23	-0.1394506
80	0xbda12151	-0.07867683
81	0xbe5c9e3f	-0.21544741
82	0x3edb9c8d	0.42892876
83	0xbd53c826	-0.05170455
84	0x3e449632	0.1919792
85	0xbf2ee361	-0.683157
86	0xbf02225e	-0.5083369
87	0x3d3b1cc7	0.04568174
88	0xbf05f5bc	-0.52328086
89	0xbc488296	-0.012238165
90	0x3f643ecd	0.89158326
91	0x3f8efc3b	1.1170725
92	0x3f3f4865	0.7471984
93	0x3f80509a	1.0024598
94	0x3f539845	0.8265422
95	0x3e6c8764	0.23098522
96	0x3ec1ad06	0.3782732
97	0x3dc5ad93	0.09652247
98	0x3e5ebcf0	0.21751761
99	0x3ed20039	0.41015795
100	0x3e558be8	0.20854151
101	0xbe84a601	-0.259079
102	0xbeb3717b	-0.35047516
103	0xbe8cad46	-0.27475947
104	0xbed9faae	-0.42574066
105	0xbdd407da	-0.1035306
106	0x3de25dc4	0.110530406
107	0x3f145503	0.5794222
108	0x3e879b1f	0.26485536
109	0xbe21616d	-0.15759821
110	0xbde98850	-0.11402953
111	0x3ed54886	0.41656893
112	0xbdf50432	-0.11963691
113	0x3e1ac23d	0.15113159
114	0x3e7b9c81	0.2457142
115	0xbe8bc2a7	-0.27296945
116	0xbe03a0d0	-0.12854314
117	0x3e030be1	0.127975
118	0xbda7b296	-0.081883594
119	0xbf25649b	-0.64606637

lstm.weight_hh_l0 f4 [24, 6]
0	0xbf440e40	-0.76584244
1	0xbf125f98	-0.57177114
2	0xbf66cd56	-0.9015707
3	0x3f1066c1	0.5640679
4	0x3f1d6048	0.6147504
5	0x3ea2a829	0.3176892
6	0x3da9862e	0.08277546
7	0x3d196bc3	0.037456285
8	0x3e6a2a3e	0.22867677
9	0x3e9c2e42	0.30504042
10	0x3e936d4a	0.28794318
11	0xbe2e3c06	-0.17015085
12	0x3e1bb390	0.15205216
13	0x3edab8fd	0.4271926
14	0xbd588142	-0.052857645
15	0xbe04fe4a	-0.12987629
16	0x3eb354e6	0.3502571
17	0xbcd5a30a	-0.02607872
18	0xbe9ac86d	-0.30231038
19	0xbf0866db	-0.53281945
20	0xbd4619f9	-0.048364613
21	0x3e190e2f	0.14946817
22	0x3e8f8b8a	0.28036147
23	0x3ea741b4	0.32667315
24	0xbebce28b	-0.3689159
25	0xbeee5d50	-0.46555567
26	0xbd33c538	-0.043889254
27	0x3e95eea0	0.2928362
28	0x3eb46814	0.35235655
29	0xbe85b1cc	-0.2611221
30	0xbe5569ff	-0.20841216
31	0xbeb41d93	-0.35178813
32	0xbef1c444	-0.4722005
33	0x3eeb4464	0.45950615
34	0x3f0e2b19	0.5553451
35	0x3f22e2fa	0.6362759
36	0xbe6453f1	-0.22297646
37	0x3ebc4df1	0.36778215
38	0xbdd3dcfe	-0.10344885
39	0x3ebeff61	0.37304214
40	0x3e6eb39b	0.23310702
41	0x3f14c4a5	0.58112556
42	0x3ec70bf9	0.38876322
43	0xbeb46ae0	-0.3523779
44	0xbdf3c962	-0.11903645
45	0x3e8769c8	0.26447892
46	0xbdf7201b	-0.120666705
47	0x3e10337e	0.14082143
48	0x3dcfd29f	0.10147595
49	0x3f10c814	0.56555295
50	0x3e557c85	0.20848282
51	0x3ead5505	0.33853927
52	0xbebf4c95	-0.37363115
53	0xbd00e041	-0.031463865
54	0x3dc006a9	0.0937627
55	0x3e01add5	0.12663968
56	0xbe2c7fee	-0.16845676
57	0xbd30cf9f	-0.043166753
58	0x3e7abeae	0.24486801
59	0x3ecb068d	0.39653435
60	0xbcfc599c	-0.030804448
61	0xbe1a815b	-0.15088408
62	0xbed9f1a6	-0.42567176
63	0xbedc70c7	-0.43054792
64	0xbd9baf74	-0.076018244
65	0xbe5370fd	-0.2064857
66	0x3e5a3157	0.21307884
67	0x3e80cfcd	0.2515854
68	0xbd994f5b	-0.07485839
69	0x3f217b15	0.63078433
70	0xbd477a70	-0.04870075
71	0x3e9035e9	0.2816613
72	0xbecc1be2	-0.39865023
73	0xbee2f386	-0.4432642
74	0x3dbea5c2	0.093089595
75	0xbf1ad1a2	-0.60476124
76	0xbdd0be54	-0.10192552
77	0xbeb62aaf	-0.3557944
78	0xbe3d3591	-0.18477465
79	0xbeb8aa27	-0.36067316
80	0x3e818493	0.2529646
81	0x3e81f181	0.25379565
82	0x3d61ba60	0.05510938
83	0xbe423f81	-0.18969537
84	0xbf333ea6	-0.7001747
85	0xbef003d6	-0.46877927
86	0xbdbdf7d8	-0.09275788
87	0xbda031b9	-0.07821984
88	0x3e49df3d	0.19714065
89	0xbe8cdc35	-0.27511755
90	0x3e0a8a00	0.13529205
91	0xbede85de	-0.43461508
92	0x3e566860	0.20938253
93	0xbe80ba58	-0.2514217
94	0x3d90a354	0.07062402
95	0xbe0eb617	-0.1393665
96	0xbc88a422	-0.016679827
97	0xbe76e08f	-0.241091
98	0x3e782c64	0.24235684
99	0xbdb4addc	-0.088222235
100	0x3ee4e8a4	0.4470874
101	0x3ec28fed	0.38000432
102	0x3da618c9	0.08110196
103	0xbeb2e053	-0.3493677
104	0x3ed3829f	0.41310593
105	0x3eb0a4dc	0.34500778
106	0xbe8c2a39	-0.27375963
107	0xbe3e9ec1	-0.18615247
108	0xbf4198d6	-0.75623834
109	0xbed5ffa7	-0.4179661
110	0xbf0c9710	-0.54918003
111	0x3efe4c0a	0.49667388
112	0x3f66df2c	0.90184283
113	0x3f5eff45	0.8710826
114	0x3df90b80	0.121603966
115	0xbe0d8ce6	-0.1382328
116	0xbec12273	-0.37721595
117	0xbe3194c7	-0.1734191
118	0x3e6b641a	0.22987404
119	0x3ebade8d	0.36497918
120	0xbe84f64d	-0.25969163
121	0x3e683a1e	0.2267842
122	0xbe8c6e1c	-0.27427757
123	0xbe9b07eb	-0.30279478
124	0xbe67536c	-0.22590417
125	0x3f2b4b9d	0.6691225
126	0x3e34037e	0.17579457
127	0x3e193c51	0.14964415
128	0x3dcf42ae	0.1012014
129	0x3e59959e	0.2124848
130	0x3e16c669	0.14724125
131	0x3d5f22b1	0.054476444
132	0x3e106071	0.1409929
133	0xbe8a9483	-0.2706643
134	0xbe950db1	-0.29112008
135	0xbe20fa8a	-0.15720573
136	0x3df0e1b4	0.117617995
137	0x3e95ffbc	0.29296672
138	0xbead473e	-0.33843416
139	0xbe965a6f	-0.2936587
140	0xbe6ddc96	-0.23228678
141	0x3da5f10d	0.081026174
142	0xbd18e737	-0.03732988
143	0x3f195551	0.5989581

lstm.bias_ih_l0 f4 [24]
0	0x3f5cbee2	0.86228764
1	0x3ee0cd17	0.4390647
2	0x3ec97634	0.39347994
3	0x3ea02292	0.31276375
4	0x3e6fe7d5	0.2342828
5	0x3ea09613	0.31364498
6	0xbd780608	-0.060552627
7	0xbccaf8e0	-0.024776876
8	0xbdaa5d7c	-0.08318612
9	0x3e29d050	0.16583371
10	0x3ef7b0b3	0.48376998
11	0xbe705d87	-0.23473178
12	0xbd86b958	-0.0657832
13	0xbe0a1f39	-0.13488473
14	0xbc8fd6ac	-0.017558418
15	0x3dbe7491	0.09299577
16	0x3ecd6632	0.4011703
17	0x3e9b235b	0.30300412
18	0x3f928e54	1.1449685
19	0xbe393614	-0.18087035
20	0xbe4df427	-0.20112668
21	0x3ddb0820	0.10694909
22	0xbd1be29d	-0.038057912
23	0x3e1207c6	0.14260778

lstm.bias_hh_l0 f4 [24]
0	0x3f0e5ced	0.55610543
1	0x3e45b686	0.19307908
2	0xbea1548d	-0.3150982
3	0xbd8a9270	-0.06766212
4	0xbe7b8612	-0.24562863
5	0x3f1349fd	0.5753477
6	0xbee83571	-0.45353273
7	0x3ea03246	0.31288356
8	0xbdd1f6af	-0.10252129
9	0xbd0ba795	-0.034095366
10	0x3eb8160a	0.35954314
11	0xbe2aa9e7	-0.16666375
12	0x3eb9c400	0.3628235
13	0x3e84aed2	0.25914627
14	0xbe32f687	-0.17476855
15	0x3e39006a	0.18066564
16	0x3e31aa0f	0.17350028
17	0x3d9283a3	0.07154014
18	0x3f82314c	1.0171294
19	0x3e6cca23	0.23123984
20	0xbe36b1ca	-0.17841259
21	0x3e13e122	0.1444135
22	0x3ed9a39f	0.42507645
23	0x3ec44177	0.38331196

fc.weight f4 [1, 6]
0	0xbef8ad51	-0.4856973
1	0xbf05b94e	-0.5223588
2	0xbd8630ce	-0.065522775
3	0xbf06a606	-0.5259708
4	0x3ebeba91	0.37251714
5	0xbe908ef0	-0.28234053
